…
Task ID: [0] - Epoch: [201 | 250] LR: 0.000100

Keys:  ['time', 'acc1', 'acc5', 'ce_loss']
Training:  [0.019834787030763263, 99.98022151898734, 100.0, 0.00525421697257346]
Testing:  [0.07461748123168946, 91.3, 99.2, 0.3190151065587997]
Best Acc:  91.5

Keys:  ['time', 'acc1', 'acc5', 'ce_loss']
Testing performance of task 0:  [0.08220968246459961, 92.0, 99.2, 0.31778969466686247]
Average Task Incremental Accuracy:  92.0
[27, 64, 64, 64, 64, 128, 128, 64, 128, 128, 256, 256, 128, 256, 256, 512, 512, 256, 512, 512]
ResNetMultitask(
  (conv1): Sequential(
    (0): MultitaskConv2d(
      (conv_shared): Conv2d(3, 27, kernel_size=(3, 3), stride=(1, 1), padding=(1, 1), bias=False)
      (conv_task): ModuleList(
        (0): TaskConv2d(
          (conv_t): Conv2d(27, 64, kernel_size=(1, 1), stride=(1, 1))
          (bn_next): BatchNorm2d(64, eps=1e-05, momentum=0.1, affine=True, track_running_stats=True)
        )
      )
    )
    (1): Sequential()
    (2): ReLU(inplace=True)
  )
  (conv2_x): Sequential(
    (0): BasicBlock(
      (residual_function): Sequential(
        (0): MultitaskConv2d(
          (conv_shared): Conv2d(64, 64, kernel_size=(3, 3), stride=(1, 1), padding=(1, 1), bias=False)
          (conv_task): ModuleList(
            (0): TaskConv2d(
              (conv_t): Conv2d(64, 64, kernel_size=(1, 1), stride=(1, 1))
              (bn_next): BatchNorm2d(64, eps=1e-05, momentum=0.1, affine=True, track_running_stats=True)
            )
          )
        )
        (1): Sequential()
        (2): ReLU(inplace=True)
        (3): MultitaskConv2d(
          (conv_shared): Conv2d(64, 64, kernel_size=(3, 3), stride=(1, 1), padding=(1, 1), bias=False)
          (conv_task): ModuleList(
            (0): TaskConv2d(
              (conv_t): Conv2d(64, 64, kernel_size=(1, 1), stride=(1, 1))
              (bn_next): BatchNorm2d(64, eps=1e-05, momentum=0.1, affine=True, track_running_stats=True)
            )
          )
        )
        (4): Sequential()
      )
      (shortcut): Sequential()
    )
    (1): BasicBlock(
      (residual_function): Sequential(
        (0): MultitaskConv2d(
          (conv_shared): Conv2d(64, 64, kernel_size=(3, 3), stride=(1, 1), padding=(1, 1), bias=False)
          (conv_task): ModuleList(
            (0): TaskConv2d(
              (conv_t): Conv2d(64, 64, kernel_size=(1, 1), stride=(1, 1))
              (bn_next): BatchNorm2d(64, eps=1e-05, momentum=0.1, affine=True, track_running_stats=True)
            )
          )
        )
        (1): Sequential()
        (2): ReLU(inplace=True)
        (3): MultitaskConv2d(
          (conv_shared): Conv2d(64, 64, kernel_size=(3, 3), stride=(1, 1), padding=(1, 1), bias=False)
          (conv_task): ModuleList(
            (0): TaskConv2d(
              (conv_t): Conv2d(64, 64, kernel_size=(1, 1), stride=(1, 1))
              (bn_next): BatchNorm2d(64, eps=1e-05, momentum=0.1, affine=True, track_running_stats=True)
            )
          )
        )
        (4): Sequential()
      )
      (shortcut): Sequential()
    )
  )
  (conv3_x): Sequential(
    (0): BasicBlock(
      (residual_function): Sequential(
        (0): MultitaskConv2d(
          (conv_shared): Conv2d(64, 128, kernel_size=(3, 3), stride=(2, 2), padding=(1, 1), bias=False)
          (conv_task): ModuleList(
            (0): TaskConv2d(
              (conv_t): Conv2d(128, 128, kernel_size=(1, 1), stride=(1, 1))
              (bn_next): BatchNorm2d(128, eps=1e-05, momentum=0.1, affine=True, track_running_stats=True)
            )
          )
        )
        (1): Sequential()
        (2): ReLU(inplace=True)
        (3): MultitaskConv2d(
          (conv_shared): Conv2d(128, 128, kernel_size=(3, 3), stride=(1, 1), padding=(1, 1), bias=False)
          (conv_task): ModuleList(
            (0): TaskConv2d(
              (conv_t): Conv2d(128, 128, kernel_size=(1, 1), stride=(1, 1))
              (bn_next): BatchNorm2d(128, eps=1e-05, momentum=0.1, affine=True, track_running_stats=True)
            )
          )
        )
        (4): Sequential()
      )
      (shortcut): Sequential(
        (0): MultitaskConv2d(
          (conv_shared): Conv2d(64, 64, kernel_size=(1, 1), stride=(2, 2), bias=False)
          (conv_task): ModuleList(
            (0): TaskConv2d(
              (conv_t): Conv2d(64, 128, kernel_size=(1, 1), stride=(1, 1))
              (bn_next): BatchNorm2d(128, eps=1e-05, momentum=0.1, affine=True, track_running_stats=True)
            )
          )
        )
        (1): Sequential()
      )
    )
    (1): BasicBlock(
      (residual_function): Sequential(
        (0): MultitaskConv2d(
          (conv_shared): Conv2d(128, 128, kernel_size=(3, 3), stride=(1, 1), padding=(1, 1), bias=False)
          (conv_task): ModuleList(
            (0): TaskConv2d(
              (conv_t): Conv2d(128, 128, kernel_size=(1, 1), stride=(1, 1))
              (bn_next): BatchNorm2d(128, eps=1e-05, momentum=0.1, affine=True, track_running_stats=True)
            )
          )
        )
        (1): Sequential()
        (2): ReLU(inplace=True)
        (3): MultitaskConv2d(
          (conv_shared): Conv2d(128, 128, kernel_size=(3, 3), stride=(1, 1), padding=(1, 1), bias=False)
          (conv_task): ModuleList(
            (0): TaskConv2d(
              (conv_t): Conv2d(128, 128, kernel_size=(1, 1), stride=(1, 1))
              (bn_next): BatchNorm2d(128, eps=1e-05, momentum=0.1, affine=True, track_running_stats=True)
            )
          )
        )
        (4): Sequential()
      )
      (shortcut): Sequential()
    )
  )
  (conv4_x): Sequential(
    (0): BasicBlock(
      (residual_function): Sequential(
        (0): MultitaskConv2d(
          (conv_shared): Conv2d(128, 256, kernel_size=(3, 3), stride=(2, 2), padding=(1, 1), bias=False)
          (conv_task): ModuleList(
            (0): TaskConv2d(
              (conv_t): Conv2d(256, 256, kernel_size=(1, 1), stride=(1, 1))
              (bn_next): BatchNorm2d(256, eps=1e-05, momentum=0.1, affine=True, track_running_stats=True)
            )
          )
        )
        (1): Sequential()
        (2): ReLU(inplace=True)
        (3): MultitaskConv2d(
          (conv_shared): Conv2d(256, 256, kernel_size=(3, 3), stride=(1, 1), padding=(1, 1), bias=False)
          (conv_task): ModuleList(
            (0): TaskConv2d(
              (conv_t): Conv2d(256, 256, kernel_size=(1, 1), stride=(1, 1))
              (bn_next): BatchNorm2d(256, eps=1e-05, momentum=0.1, affine=True, track_running_stats=True)
            )
          )
        )
        (4): Sequential()
      )
      (shortcut): Sequential(
        (0): MultitaskConv2d(
          (conv_shared): Conv2d(128, 128, kernel_size=(1, 1), stride=(2, 2), bias=False)
          (conv_task): ModuleList(
            (0): TaskConv2d(
              (conv_t): Conv2d(128, 256, kernel_size=(1, 1), stride=(1, 1))
              (bn_next): BatchNorm2d(256, eps=1e-05, momentum=0.1, affine=True, track_running_stats=True)
            )
          )
        )
        (1): Sequential()
      )
    )
    (1): BasicBlock(
      (residual_function): Sequential(
        (0): MultitaskConv2d(
          (conv_shared): Conv2d(256, 256, kernel_size=(3, 3), stride=(1, 1), padding=(1, 1), bias=False)
          (conv_task): ModuleList(
            (0): TaskConv2d(
              (conv_t): Conv2d(256, 256, kernel_size=(1, 1), stride=(1, 1))
              (bn_next): BatchNorm2d(256, eps=1e-05, momentum=0.1, affine=True, track_running_stats=True)
            )
          )
        )
        (1): Sequential()
        (2): ReLU(inplace=True)
        (3): MultitaskConv2d(
          (conv_shared): Conv2d(256, 256, kernel_size=(3, 3), stride=(1, 1), padding=(1, 1), bias=False)
          (conv_task): ModuleList(
            (0): TaskConv2d(
              (conv_t): Conv2d(256, 256, kernel_size=(1, 1), stride=(1, 1))
              (bn_next): BatchNorm2d(256, eps=1e-05, momentum=0.1, affine=True, track_running_stats=True)
            )
          )
        )
        (4): Sequential()
      )
      (shortcut): Sequential()
    )
  )
  (conv5_x): Sequential(
    (0): BasicBlock(
      (residual_function): Sequential(
        (0): MultitaskConv2d(
          (conv_shared): Conv2d(256, 512, kernel_size=(3, 3), stride=(2, 2), padding=(1, 1), bias=False)
          (conv_task): ModuleList(
            (0): TaskConv2d(
              (conv_t): Conv2d(512, 512, kernel_size=(1, 1), stride=(1, 1))
              (bn_next): BatchNorm2d(512, eps=1e-05, momentum=0.1, affine=True, track_running_stats=True)
            )
          )
        )
        (1): Sequential()
        (2): ReLU(inplace=True)
        (3): MultitaskConv2d(
          (conv_shared): Conv2d(512, 512, kernel_size=(3, 3), stride=(1, 1), padding=(1, 1), bias=False)
          (conv_task): ModuleList(
            (0): TaskConv2d(
              (conv_t): Conv2d(512, 512, kernel_size=(1, 1), stride=(1, 1))
              (bn_next): BatchNorm2d(512, eps=1e-05, momentum=0.1, affine=True, track_running_stats=True)
            )
          )
        )
        (4): Sequential()
      )
      (shortcut): Sequential(
        (0): MultitaskConv2d(
          (conv_shared): Conv2d(256, 256, kernel_size=(1, 1), stride=(2, 2), bias=False)
          (conv_task): ModuleList(
            (0): TaskConv2d(
              (conv_t): Conv2d(256, 512, kernel_size=(1, 1), stride=(1, 1))
              (bn_next): BatchNorm2d(512, eps=1e-05, momentum=0.1, affine=True, track_running_stats=True)
            )
          )
        )
        (1): Sequential()
      )
    )
    (1): BasicBlock(
      (residual_function): Sequential(
        (0): MultitaskConv2d(
          (conv_shared): Conv2d(512, 512, kernel_size=(3, 3), stride=(1, 1), padding=(1, 1), bias=False)
          (conv_task): ModuleList(
            (0): TaskConv2d(
              (conv_t): Conv2d(512, 512, kernel_size=(1, 1), stride=(1, 1))
              (bn_next): BatchNorm2d(512, eps=1e-05, momentum=0.1, affine=True, track_running_stats=True)
            )
          )
        )
        (1): Sequential()
        (2): ReLU(inplace=True)
        (3): MultitaskConv2d(
          (conv_shared): Conv2d(512, 512, kernel_size=(3, 3), stride=(1, 1), padding=(1, 1), bias=False)
          (conv_task): ModuleList(
            (0): TaskConv2d(
              (conv_t): Conv2d(512, 512, kernel_size=(1, 1), stride=(1, 1))
              (bn_next): BatchNorm2d(512, eps=1e-05, momentum=0.1, affine=True, track_running_stats=True)
            )
          )
        )
        (4): Sequential()
      )
      (shortcut): Sequential()
    )
  )
  (avg_pool): AdaptiveAvgPool2d(output_size=(1, 1))
  (classifiers): ModuleList(
    (0): Linear(in_features=512, out_features=10, bias=True)
  )
)
Running inference on model to measure class incremental accuracy ...
Total tasks: 1, CIL Acc: 92.00, Task-id Cls. Acc.:  100.00


__________________________________________________________________________________________

Training task:  1

Task ID: [1] - Epoch: [1 | 250] LR: 0.100000

Keys:  ['time', 'acc1', 'acc5', 'ce_loss']
Training:  [0.027677777447277986, 54.311708860759495, 92.20727848101266, 1.4589046835899353]
…
